{"class_name": "Functional", "config": {"name": "functional_9", "layers": [{"class_name": "InputLayer", "config": {"batch_input_shape": [null, 500, 1024], "dtype": "float32", "sparse": false, "ragged": false, "name": "input_5"}, "name": "input_5", "inbound_nodes": []}, {"class_name": "Conv1D", "config": {"name": "conv1d_169", "trainable": true, "dtype": "float32", "filters": 64, "kernel_size": [5], "strides": [1], "padding": "same", "data_format": "channels_last", "dilation_rate": [1], "groups": 1, "activation": "linear", "use_bias": true, "kernel_initializer": {"class_name": "GlorotUniform", "config": {"seed": null}}, "bias_initializer": {"class_name": "Zeros", "config": {}}, "kernel_regularizer": null, "bias_regularizer": null, "activity_regularizer": null, "kernel_constraint": null, "bias_constraint": null}, "name": "conv1d_169", "inbound_nodes": [[["input_5", 0, 0, {}]]]}, {"class_name": "BatchNormalization", "config": {"name": "batch_normalization_173", "trainable": true, "dtype": "float32", "axis": [2], "momentum": 0.99, "epsilon": 0.001, "center": true, "scale": true, "beta_initializer": {"class_name": "Zeros", "config": {}}, "gamma_initializer": {"class_name": "Ones", "config": {}}, "moving_mean_initializer": {"class_name": "Zeros", "config": {}}, "moving_variance_initializer": {"class_name": "Ones", "config": {}}, "beta_regularizer": null, "gamma_regularizer": null, "beta_constraint": null, "gamma_constraint": null}, "name": "batch_normalization_173", "inbound_nodes": [[["conv1d_169", 0, 0, {}]]]}, {"class_name": "Activation", "config": {"name": "activation_9", "trainable": true, "dtype": "float32", "activation": "relu"}, "name": "activation_9", "inbound_nodes": [[["batch_normalization_173", 0, 0, {}]]]}, {"class_name": "Dropout", "config": {"name": "dropout_169", "trainable": true, "dtype": "float32", "rate": 0.5, "noise_shape": null, "seed": null}, "name": "dropout_169", "inbound_nodes": [[["activation_9", 0, 0, {}]]]}, {"class_name": "BatchNormalization", "config": {"name": "batch_normalization_174", "trainable": true, "dtype": "float32", "axis": [2], "momentum": 0.99, "epsilon": 0.001, "center": true, "scale": true, "beta_initializer": {"class_name": "Zeros", "config": {}}, "gamma_initializer": {"class_name": "Ones", "config": {}}, "moving_mean_initializer": {"class_name": "Zeros", "config": {}}, "moving_variance_initializer": {"class_name": "Ones", "config": {}}, "beta_regularizer": null, "gamma_regularizer": null, "beta_constraint": null, "gamma_constraint": null}, "name": "batch_normalization_174", "inbound_nodes": [[["dropout_169", 0, 0, {}]]]}, {"class_name": "LeakyReLU", "config": {"name": "leaky_re_lu_168", "trainable": true, "dtype": "float32", "alpha": 0.30000001192092896}, "name": "leaky_re_lu_168", "inbound_nodes": [[["batch_normalization_174", 0, 0, {}]]]}, {"class_name": "Dropout", "config": {"name": "dropout_170", "trainable": true, "dtype": "float32", "rate": 0.5, "noise_shape": null, "seed": null}, "name": "dropout_170", "inbound_nodes": [[["leaky_re_lu_168", 0, 0, {}]]]}, {"class_name": "Conv1D", "config": {"name": "conv1d_170", "trainable": true, "dtype": "float32", "filters": 64, "kernel_size": [9], "strides": [1], "padding": "same", "data_format": "channels_last", "dilation_rate": [3], "groups": 1, "activation": "linear", "use_bias": true, "kernel_initializer": {"class_name": "GlorotUniform", "config": {"seed": null}}, "bias_initializer": {"class_name": "Zeros", "config": {}}, "kernel_regularizer": null, "bias_regularizer": null, "activity_regularizer": null, "kernel_constraint": null, "bias_constraint": null}, "name": "conv1d_170", "inbound_nodes": [[["dropout_170", 0, 0, {}]]]}, {"class_name": "BatchNormalization", "config": {"name": "batch_normalization_175", "trainable": true, "dtype": "float32", "axis": [2], "momentum": 0.99, "epsilon": 0.001, "center": true, "scale": true, "beta_initializer": {"class_name": "Zeros", "config": {}}, "gamma_initializer": {"class_name": "Ones", "config": {}}, "moving_mean_initializer": {"class_name": "Zeros", "config": {}}, "moving_variance_initializer": {"class_name": "Ones", "config": {}}, "beta_regularizer": null, "gamma_regularizer": null, "beta_constraint": null, "gamma_constraint": null}, "name": "batch_normalization_175", "inbound_nodes": [[["conv1d_170", 0, 0, {}]]]}, {"class_name": "LeakyReLU", "config": {"name": "leaky_re_lu_169", "trainable": true, "dtype": "float32", "alpha": 0.30000001192092896}, "name": "leaky_re_lu_169", "inbound_nodes": [[["batch_normalization_175", 0, 0, {}]]]}, {"class_name": "Dropout", "config": {"name": "dropout_171", "trainable": true, "dtype": "float32", "rate": 0.5, "noise_shape": null, "seed": null}, "name": "dropout_171", "inbound_nodes": [[["leaky_re_lu_169", 0, 0, {}]]]}, {"class_name": "Conv1D", "config": {"name": "conv1d_171", "trainable": true, "dtype": "float32", "filters": 64, "kernel_size": [9], "strides": [1], "padding": "same", "data_format": "channels_last", "dilation_rate": [3], "groups": 1, "activation": "linear", "use_bias": true, "kernel_initializer": {"class_name": "GlorotUniform", "config": {"seed": null}}, "bias_initializer": {"class_name": "Zeros", "config": {}}, "kernel_regularizer": null, "bias_regularizer": null, "activity_regularizer": null, "kernel_constraint": null, "bias_constraint": null}, "name": "conv1d_171", "inbound_nodes": [[["dropout_171", 0, 0, {}]]]}, {"class_name": "Add", "config": {"name": "add_80", "trainable": true, "dtype": "float32"}, "name": "add_80", "inbound_nodes": [[["dropout_169", 0, 0, {}], ["conv1d_171", 0, 0, {}]]]}, {"class_name": "BatchNormalization", "config": {"name": "batch_normalization_176", "trainable": true, "dtype": "float32", "axis": [2], "momentum": 0.99, "epsilon": 0.001, "center": true, "scale": true, "beta_initializer": {"class_name": "Zeros", "config": {}}, "gamma_initializer": {"class_name": "Ones", "config": {}}, "moving_mean_initializer": {"class_name": "Zeros", "config": {}}, "moving_variance_initializer": {"class_name": "Ones", "config": {}}, "beta_regularizer": null, "gamma_regularizer": null, "beta_constraint": null, "gamma_constraint": null}, "name": "batch_normalization_176", "inbound_nodes": [[["add_80", 0, 0, {}]]]}, {"class_name": "LeakyReLU", "config": {"name": "leaky_re_lu_170", "trainable": true, "dtype": "float32", "alpha": 0.30000001192092896}, "name": "leaky_re_lu_170", "inbound_nodes": [[["batch_normalization_176", 0, 0, {}]]]}, {"class_name": "Dropout", "config": {"name": "dropout_172", "trainable": true, "dtype": "float32", "rate": 0.5, "noise_shape": null, "seed": null}, "name": "dropout_172", "inbound_nodes": [[["leaky_re_lu_170", 0, 0, {}]]]}, {"class_name": "Conv1D", "config": {"name": "conv1d_172", "trainable": true, "dtype": "float32", "filters": 64, "kernel_size": [9], "strides": [1], "padding": "same", "data_format": "channels_last", "dilation_rate": [3], "groups": 1, "activation": "linear", "use_bias": true, "kernel_initializer": {"class_name": "GlorotUniform", "config": {"seed": null}}, "bias_initializer": {"class_name": "Zeros", "config": {}}, "kernel_regularizer": null, "bias_regularizer": null, "activity_regularizer": null, "kernel_constraint": null, "bias_constraint": null}, "name": "conv1d_172", "inbound_nodes": [[["dropout_172", 0, 0, {}]]]}, {"class_name": "BatchNormalization", "config": {"name": "batch_normalization_177", "trainable": true, "dtype": "float32", "axis": [2], "momentum": 0.99, "epsilon": 0.001, "center": true, "scale": true, "beta_initializer": {"class_name": "Zeros", "config": {}}, "gamma_initializer": {"class_name": "Ones", "config": {}}, "moving_mean_initializer": {"class_name": "Zeros", "config": {}}, "moving_variance_initializer": {"class_name": "Ones", "config": {}}, "beta_regularizer": null, "gamma_regularizer": null, "beta_constraint": null, "gamma_constraint": null}, "name": "batch_normalization_177", "inbound_nodes": [[["conv1d_172", 0, 0, {}]]]}, {"class_name": "LeakyReLU", "config": {"name": "leaky_re_lu_171", "trainable": true, "dtype": "float32", "alpha": 0.30000001192092896}, "name": "leaky_re_lu_171", "inbound_nodes": [[["batch_normalization_177", 0, 0, {}]]]}, {"class_name": "Dropout", "config": {"name": "dropout_173", "trainable": true, "dtype": "float32", "rate": 0.5, "noise_shape": null, "seed": null}, "name": "dropout_173", "inbound_nodes": [[["leaky_re_lu_171", 0, 0, {}]]]}, {"class_name": "Conv1D", "config": {"name": "conv1d_173", "trainable": true, "dtype": "float32", "filters": 64, "kernel_size": [9], "strides": [1], "padding": "same", "data_format": "channels_last", "dilation_rate": [3], "groups": 1, "activation": "linear", "use_bias": true, "kernel_initializer": {"class_name": "GlorotUniform", "config": {"seed": null}}, "bias_initializer": {"class_name": "Zeros", "config": {}}, "kernel_regularizer": null, "bias_regularizer": null, "activity_regularizer": null, "kernel_constraint": null, "bias_constraint": null}, "name": "conv1d_173", "inbound_nodes": [[["dropout_173", 0, 0, {}]]]}, {"class_name": "Add", "config": {"name": "add_81", "trainable": true, "dtype": "float32"}, "name": "add_81", "inbound_nodes": [[["add_80", 0, 0, {}], ["conv1d_173", 0, 0, {}]]]}, {"class_name": "BatchNormalization", "config": {"name": "batch_normalization_178", "trainable": true, "dtype": "float32", "axis": [2], "momentum": 0.99, "epsilon": 0.001, "center": true, "scale": true, "beta_initializer": {"class_name": "Zeros", "config": {}}, "gamma_initializer": {"class_name": "Ones", "config": {}}, "moving_mean_initializer": {"class_name": "Zeros", "config": {}}, "moving_variance_initializer": {"class_name": "Ones", "config": {}}, "beta_regularizer": null, "gamma_regularizer": null, "beta_constraint": null, "gamma_constraint": null}, "name": "batch_normalization_178", "inbound_nodes": [[["add_81", 0, 0, {}]]]}, {"class_name": "LeakyReLU", "config": {"name": "leaky_re_lu_172", "trainable": true, "dtype": "float32", "alpha": 0.30000001192092896}, "name": "leaky_re_lu_172", "inbound_nodes": [[["batch_normalization_178", 0, 0, {}]]]}, {"class_name": "Dropout", "config": {"name": "dropout_174", "trainable": true, "dtype": "float32", "rate": 0.5, "noise_shape": null, "seed": null}, "name": "dropout_174", "inbound_nodes": [[["leaky_re_lu_172", 0, 0, {}]]]}, {"class_name": "Conv1D", "config": {"name": "conv1d_174", "trainable": true, "dtype": "float32", "filters": 64, "kernel_size": [9], "strides": [1], "padding": "same", "data_format": "channels_last", "dilation_rate": [3], "groups": 1, "activation": "linear", "use_bias": true, "kernel_initializer": {"class_name": "GlorotUniform", "config": {"seed": null}}, "bias_initializer": {"class_name": "Zeros", "config": {}}, "kernel_regularizer": null, "bias_regularizer": null, "activity_regularizer": null, "kernel_constraint": null, "bias_constraint": null}, "name": "conv1d_174", "inbound_nodes": [[["dropout_174", 0, 0, {}]]]}, {"class_name": "BatchNormalization", "config": {"name": "batch_normalization_179", "trainable": true, "dtype": "float32", "axis": [2], "momentum": 0.99, "epsilon": 0.001, "center": true, "scale": true, "beta_initializer": {"class_name": "Zeros", "config": {}}, "gamma_initializer": {"class_name": "Ones", "config": {}}, "moving_mean_initializer": {"class_name": "Zeros", "config": {}}, "moving_variance_initializer": {"class_name": "Ones", "config": {}}, "beta_regularizer": null, "gamma_regularizer": null, "beta_constraint": null, "gamma_constraint": null}, "name": "batch_normalization_179", "inbound_nodes": [[["conv1d_174", 0, 0, {}]]]}, {"class_name": "LeakyReLU", "config": {"name": "leaky_re_lu_173", "trainable": true, "dtype": "float32", "alpha": 0.30000001192092896}, "name": "leaky_re_lu_173", "inbound_nodes": [[["batch_normalization_179", 0, 0, {}]]]}, {"class_name": "Dropout", "config": {"name": "dropout_175", "trainable": true, "dtype": "float32", "rate": 0.5, "noise_shape": null, "seed": null}, "name": "dropout_175", "inbound_nodes": [[["leaky_re_lu_173", 0, 0, {}]]]}, {"class_name": "Conv1D", "config": {"name": "conv1d_175", "trainable": true, "dtype": "float32", "filters": 64, "kernel_size": [9], "strides": [1], "padding": "same", "data_format": "channels_last", "dilation_rate": [3], "groups": 1, "activation": "linear", "use_bias": true, "kernel_initializer": {"class_name": "GlorotUniform", "config": {"seed": null}}, "bias_initializer": {"class_name": "Zeros", "config": {}}, "kernel_regularizer": null, "bias_regularizer": null, "activity_regularizer": null, "kernel_constraint": null, "bias_constraint": null}, "name": "conv1d_175", "inbound_nodes": [[["dropout_175", 0, 0, {}]]]}, {"class_name": "Add", "config": {"name": "add_82", "trainable": true, "dtype": "float32"}, "name": "add_82", "inbound_nodes": [[["add_81", 0, 0, {}], ["conv1d_175", 0, 0, {}]]]}, {"class_name": "BatchNormalization", "config": {"name": "batch_normalization_180", "trainable": true, "dtype": "float32", "axis": [2], "momentum": 0.99, "epsilon": 0.001, "center": true, "scale": true, "beta_initializer": {"class_name": "Zeros", "config": {}}, "gamma_initializer": {"class_name": "Ones", "config": {}}, "moving_mean_initializer": {"class_name": "Zeros", "config": {}}, "moving_variance_initializer": {"class_name": "Ones", "config": {}}, "beta_regularizer": null, "gamma_regularizer": null, "beta_constraint": null, "gamma_constraint": null}, "name": "batch_normalization_180", "inbound_nodes": [[["add_82", 0, 0, {}]]]}, {"class_name": "LeakyReLU", "config": {"name": "leaky_re_lu_174", "trainable": true, "dtype": "float32", "alpha": 0.30000001192092896}, "name": "leaky_re_lu_174", "inbound_nodes": [[["batch_normalization_180", 0, 0, {}]]]}, {"class_name": "Dropout", "config": {"name": "dropout_176", "trainable": true, "dtype": "float32", "rate": 0.5, "noise_shape": null, "seed": null}, "name": "dropout_176", "inbound_nodes": [[["leaky_re_lu_174", 0, 0, {}]]]}, {"class_name": "Conv1D", "config": {"name": "conv1d_176", "trainable": true, "dtype": "float32", "filters": 64, "kernel_size": [9], "strides": [1], "padding": "same", "data_format": "channels_last", "dilation_rate": [3], "groups": 1, "activation": "linear", "use_bias": true, "kernel_initializer": {"class_name": "GlorotUniform", "config": {"seed": null}}, "bias_initializer": {"class_name": "Zeros", "config": {}}, "kernel_regularizer": null, "bias_regularizer": null, "activity_regularizer": null, "kernel_constraint": null, "bias_constraint": null}, "name": "conv1d_176", "inbound_nodes": [[["dropout_176", 0, 0, {}]]]}, {"class_name": "BatchNormalization", "config": {"name": "batch_normalization_181", "trainable": true, "dtype": "float32", "axis": [2], "momentum": 0.99, "epsilon": 0.001, "center": true, "scale": true, "beta_initializer": {"class_name": "Zeros", "config": {}}, "gamma_initializer": {"class_name": "Ones", "config": {}}, "moving_mean_initializer": {"class_name": "Zeros", "config": {}}, "moving_variance_initializer": {"class_name": "Ones", "config": {}}, "beta_regularizer": null, "gamma_regularizer": null, "beta_constraint": null, "gamma_constraint": null}, "name": "batch_normalization_181", "inbound_nodes": [[["conv1d_176", 0, 0, {}]]]}, {"class_name": "LeakyReLU", "config": {"name": "leaky_re_lu_175", "trainable": true, "dtype": "float32", "alpha": 0.30000001192092896}, "name": "leaky_re_lu_175", "inbound_nodes": [[["batch_normalization_181", 0, 0, {}]]]}, {"class_name": "Dropout", "config": {"name": "dropout_177", "trainable": true, "dtype": "float32", "rate": 0.5, "noise_shape": null, "seed": null}, "name": "dropout_177", "inbound_nodes": [[["leaky_re_lu_175", 0, 0, {}]]]}, {"class_name": "Conv1D", "config": {"name": "conv1d_177", "trainable": true, "dtype": "float32", "filters": 64, "kernel_size": [9], "strides": [1], "padding": "same", "data_format": "channels_last", "dilation_rate": [3], "groups": 1, "activation": "linear", "use_bias": true, "kernel_initializer": {"class_name": "GlorotUniform", "config": {"seed": null}}, "bias_initializer": {"class_name": "Zeros", "config": {}}, "kernel_regularizer": null, "bias_regularizer": null, "activity_regularizer": null, "kernel_constraint": null, "bias_constraint": null}, "name": "conv1d_177", "inbound_nodes": [[["dropout_177", 0, 0, {}]]]}, {"class_name": "Add", "config": {"name": "add_83", "trainable": true, "dtype": "float32"}, "name": "add_83", "inbound_nodes": [[["add_82", 0, 0, {}], ["conv1d_177", 0, 0, {}]]]}, {"class_name": "BatchNormalization", "config": {"name": "batch_normalization_182", "trainable": true, "dtype": "float32", "axis": [2], "momentum": 0.99, "epsilon": 0.001, "center": true, "scale": true, "beta_initializer": {"class_name": "Zeros", "config": {}}, "gamma_initializer": {"class_name": "Ones", "config": {}}, "moving_mean_initializer": {"class_name": "Zeros", "config": {}}, "moving_variance_initializer": {"class_name": "Ones", "config": {}}, "beta_regularizer": null, "gamma_regularizer": null, "beta_constraint": null, "gamma_constraint": null}, "name": "batch_normalization_182", "inbound_nodes": [[["add_83", 0, 0, {}]]]}, {"class_name": "LeakyReLU", "config": {"name": "leaky_re_lu_176", "trainable": true, "dtype": "float32", "alpha": 0.30000001192092896}, "name": "leaky_re_lu_176", "inbound_nodes": [[["batch_normalization_182", 0, 0, {}]]]}, {"class_name": "Dropout", "config": {"name": "dropout_178", "trainable": true, "dtype": "float32", "rate": 0.5, "noise_shape": null, "seed": null}, "name": "dropout_178", "inbound_nodes": [[["leaky_re_lu_176", 0, 0, {}]]]}, {"class_name": "Conv1D", "config": {"name": "conv1d_178", "trainable": true, "dtype": "float32", "filters": 64, "kernel_size": [9], "strides": [1], "padding": "same", "data_format": "channels_last", "dilation_rate": [3], "groups": 1, "activation": "linear", "use_bias": true, "kernel_initializer": {"class_name": "GlorotUniform", "config": {"seed": null}}, "bias_initializer": {"class_name": "Zeros", "config": {}}, "kernel_regularizer": null, "bias_regularizer": null, "activity_regularizer": null, "kernel_constraint": null, "bias_constraint": null}, "name": "conv1d_178", "inbound_nodes": [[["dropout_178", 0, 0, {}]]]}, {"class_name": "BatchNormalization", "config": {"name": "batch_normalization_183", "trainable": true, "dtype": "float32", "axis": [2], "momentum": 0.99, "epsilon": 0.001, "center": true, "scale": true, "beta_initializer": {"class_name": "Zeros", "config": {}}, "gamma_initializer": {"class_name": "Ones", "config": {}}, "moving_mean_initializer": {"class_name": "Zeros", "config": {}}, "moving_variance_initializer": {"class_name": "Ones", "config": {}}, "beta_regularizer": null, "gamma_regularizer": null, "beta_constraint": null, "gamma_constraint": null}, "name": "batch_normalization_183", "inbound_nodes": [[["conv1d_178", 0, 0, {}]]]}, {"class_name": "LeakyReLU", "config": {"name": "leaky_re_lu_177", "trainable": true, "dtype": "float32", "alpha": 0.30000001192092896}, "name": "leaky_re_lu_177", "inbound_nodes": [[["batch_normalization_183", 0, 0, {}]]]}, {"class_name": "Dropout", "config": {"name": "dropout_179", "trainable": true, "dtype": "float32", "rate": 0.5, "noise_shape": null, "seed": null}, "name": "dropout_179", "inbound_nodes": [[["leaky_re_lu_177", 0, 0, {}]]]}, {"class_name": "Conv1D", "config": {"name": "conv1d_179", "trainable": true, "dtype": "float32", "filters": 64, "kernel_size": [9], "strides": [1], "padding": "same", "data_format": "channels_last", "dilation_rate": [3], "groups": 1, "activation": "linear", "use_bias": true, "kernel_initializer": {"class_name": "GlorotUniform", "config": {"seed": null}}, "bias_initializer": {"class_name": "Zeros", "config": {}}, "kernel_regularizer": null, "bias_regularizer": null, "activity_regularizer": null, "kernel_constraint": null, "bias_constraint": null}, "name": "conv1d_179", "inbound_nodes": [[["dropout_179", 0, 0, {}]]]}, {"class_name": "Add", "config": {"name": "add_84", "trainable": true, "dtype": "float32"}, "name": "add_84", "inbound_nodes": [[["add_83", 0, 0, {}], ["conv1d_179", 0, 0, {}]]]}, {"class_name": "BatchNormalization", "config": {"name": "batch_normalization_184", "trainable": true, "dtype": "float32", "axis": [2], "momentum": 0.99, "epsilon": 0.001, "center": true, "scale": true, "beta_initializer": {"class_name": "Zeros", "config": {}}, "gamma_initializer": {"class_name": "Ones", "config": {}}, "moving_mean_initializer": {"class_name": "Zeros", "config": {}}, "moving_variance_initializer": {"class_name": "Ones", "config": {}}, "beta_regularizer": null, "gamma_regularizer": null, "beta_constraint": null, "gamma_constraint": null}, "name": "batch_normalization_184", "inbound_nodes": [[["add_84", 0, 0, {}]]]}, {"class_name": "LeakyReLU", "config": {"name": "leaky_re_lu_178", "trainable": true, "dtype": "float32", "alpha": 0.30000001192092896}, "name": "leaky_re_lu_178", "inbound_nodes": [[["batch_normalization_184", 0, 0, {}]]]}, {"class_name": "Dropout", "config": {"name": "dropout_180", "trainable": true, "dtype": "float32", "rate": 0.5, "noise_shape": null, "seed": null}, "name": "dropout_180", "inbound_nodes": [[["leaky_re_lu_178", 0, 0, {}]]]}, {"class_name": "Conv1D", "config": {"name": "conv1d_180", "trainable": true, "dtype": "float32", "filters": 64, "kernel_size": [9], "strides": [1], "padding": "same", "data_format": "channels_last", "dilation_rate": [3], "groups": 1, "activation": "linear", "use_bias": true, "kernel_initializer": {"class_name": "GlorotUniform", "config": {"seed": null}}, "bias_initializer": {"class_name": "Zeros", "config": {}}, "kernel_regularizer": null, "bias_regularizer": null, "activity_regularizer": null, "kernel_constraint": null, "bias_constraint": null}, "name": "conv1d_180", "inbound_nodes": [[["dropout_180", 0, 0, {}]]]}, {"class_name": "BatchNormalization", "config": {"name": "batch_normalization_185", "trainable": true, "dtype": "float32", "axis": [2], "momentum": 0.99, "epsilon": 0.001, "center": true, "scale": true, "beta_initializer": {"class_name": "Zeros", "config": {}}, "gamma_initializer": {"class_name": "Ones", "config": {}}, "moving_mean_initializer": {"class_name": "Zeros", "config": {}}, "moving_variance_initializer": {"class_name": "Ones", "config": {}}, "beta_regularizer": null, "gamma_regularizer": null, "beta_constraint": null, "gamma_constraint": null}, "name": "batch_normalization_185", "inbound_nodes": [[["conv1d_180", 0, 0, {}]]]}, {"class_name": "LeakyReLU", "config": {"name": "leaky_re_lu_179", "trainable": true, "dtype": "float32", "alpha": 0.30000001192092896}, "name": "leaky_re_lu_179", "inbound_nodes": [[["batch_normalization_185", 0, 0, {}]]]}, {"class_name": "Dropout", "config": {"name": "dropout_181", "trainable": true, "dtype": "float32", "rate": 0.5, "noise_shape": null, "seed": null}, "name": "dropout_181", "inbound_nodes": [[["leaky_re_lu_179", 0, 0, {}]]]}, {"class_name": "Conv1D", "config": {"name": "conv1d_181", "trainable": true, "dtype": "float32", "filters": 64, "kernel_size": [9], "strides": [1], "padding": "same", "data_format": "channels_last", "dilation_rate": [3], "groups": 1, "activation": "linear", "use_bias": true, "kernel_initializer": {"class_name": "GlorotUniform", "config": {"seed": null}}, "bias_initializer": {"class_name": "Zeros", "config": {}}, "kernel_regularizer": null, "bias_regularizer": null, "activity_regularizer": null, "kernel_constraint": null, "bias_constraint": null}, "name": "conv1d_181", "inbound_nodes": [[["dropout_181", 0, 0, {}]]]}, {"class_name": "Add", "config": {"name": "add_85", "trainable": true, "dtype": "float32"}, "name": "add_85", "inbound_nodes": [[["add_84", 0, 0, {}], ["conv1d_181", 0, 0, {}]]]}, {"class_name": "BatchNormalization", "config": {"name": "batch_normalization_186", "trainable": true, "dtype": "float32", "axis": [2], "momentum": 0.99, "epsilon": 0.001, "center": true, "scale": true, "beta_initializer": {"class_name": "Zeros", "config": {}}, "gamma_initializer": {"class_name": "Ones", "config": {}}, "moving_mean_initializer": {"class_name": "Zeros", "config": {}}, "moving_variance_initializer": {"class_name": "Ones", "config": {}}, "beta_regularizer": null, "gamma_regularizer": null, "beta_constraint": null, "gamma_constraint": null}, "name": "batch_normalization_186", "inbound_nodes": [[["add_85", 0, 0, {}]]]}, {"class_name": "LeakyReLU", "config": {"name": "leaky_re_lu_180", "trainable": true, "dtype": "float32", "alpha": 0.30000001192092896}, "name": "leaky_re_lu_180", "inbound_nodes": [[["batch_normalization_186", 0, 0, {}]]]}, {"class_name": "Dropout", "config": {"name": "dropout_182", "trainable": true, "dtype": "float32", "rate": 0.5, "noise_shape": null, "seed": null}, "name": "dropout_182", "inbound_nodes": [[["leaky_re_lu_180", 0, 0, {}]]]}, {"class_name": "Conv1D", "config": {"name": "conv1d_182", "trainable": true, "dtype": "float32", "filters": 64, "kernel_size": [9], "strides": [1], "padding": "same", "data_format": "channels_last", "dilation_rate": [3], "groups": 1, "activation": "linear", "use_bias": true, "kernel_initializer": {"class_name": "GlorotUniform", "config": {"seed": null}}, "bias_initializer": {"class_name": "Zeros", "config": {}}, "kernel_regularizer": null, "bias_regularizer": null, "activity_regularizer": null, "kernel_constraint": null, "bias_constraint": null}, "name": "conv1d_182", "inbound_nodes": [[["dropout_182", 0, 0, {}]]]}, {"class_name": "BatchNormalization", "config": {"name": "batch_normalization_187", "trainable": true, "dtype": "float32", "axis": [2], "momentum": 0.99, "epsilon": 0.001, "center": true, "scale": true, "beta_initializer": {"class_name": "Zeros", "config": {}}, "gamma_initializer": {"class_name": "Ones", "config": {}}, "moving_mean_initializer": {"class_name": "Zeros", "config": {}}, "moving_variance_initializer": {"class_name": "Ones", "config": {}}, "beta_regularizer": null, "gamma_regularizer": null, "beta_constraint": null, "gamma_constraint": null}, "name": "batch_normalization_187", "inbound_nodes": [[["conv1d_182", 0, 0, {}]]]}, {"class_name": "LeakyReLU", "config": {"name": "leaky_re_lu_181", "trainable": true, "dtype": "float32", "alpha": 0.30000001192092896}, "name": "leaky_re_lu_181", "inbound_nodes": [[["batch_normalization_187", 0, 0, {}]]]}, {"class_name": "Dropout", "config": {"name": "dropout_183", "trainable": true, "dtype": "float32", "rate": 0.5, "noise_shape": null, "seed": null}, "name": "dropout_183", "inbound_nodes": [[["leaky_re_lu_181", 0, 0, {}]]]}, {"class_name": "Conv1D", "config": {"name": "conv1d_183", "trainable": true, "dtype": "float32", "filters": 64, "kernel_size": [9], "strides": [1], "padding": "same", "data_format": "channels_last", "dilation_rate": [3], "groups": 1, "activation": "linear", "use_bias": true, "kernel_initializer": {"class_name": "GlorotUniform", "config": {"seed": null}}, "bias_initializer": {"class_name": "Zeros", "config": {}}, "kernel_regularizer": null, "bias_regularizer": null, "activity_regularizer": null, "kernel_constraint": null, "bias_constraint": null}, "name": "conv1d_183", "inbound_nodes": [[["dropout_183", 0, 0, {}]]]}, {"class_name": "Add", "config": {"name": "add_86", "trainable": true, "dtype": "float32"}, "name": "add_86", "inbound_nodes": [[["add_85", 0, 0, {}], ["conv1d_183", 0, 0, {}]]]}, {"class_name": "BatchNormalization", "config": {"name": "batch_normalization_188", "trainable": true, "dtype": "float32", "axis": [2], "momentum": 0.99, "epsilon": 0.001, "center": true, "scale": true, "beta_initializer": {"class_name": "Zeros", "config": {}}, "gamma_initializer": {"class_name": "Ones", "config": {}}, "moving_mean_initializer": {"class_name": "Zeros", "config": {}}, "moving_variance_initializer": {"class_name": "Ones", "config": {}}, "beta_regularizer": null, "gamma_regularizer": null, "beta_constraint": null, "gamma_constraint": null}, "name": "batch_normalization_188", "inbound_nodes": [[["add_86", 0, 0, {}]]]}, {"class_name": "LeakyReLU", "config": {"name": "leaky_re_lu_182", "trainable": true, "dtype": "float32", "alpha": 0.30000001192092896}, "name": "leaky_re_lu_182", "inbound_nodes": [[["batch_normalization_188", 0, 0, {}]]]}, {"class_name": "Dropout", "config": {"name": "dropout_184", "trainable": true, "dtype": "float32", "rate": 0.5, "noise_shape": null, "seed": null}, "name": "dropout_184", "inbound_nodes": [[["leaky_re_lu_182", 0, 0, {}]]]}, {"class_name": "Conv1D", "config": {"name": "conv1d_184", "trainable": true, "dtype": "float32", "filters": 64, "kernel_size": [9], "strides": [1], "padding": "same", "data_format": "channels_last", "dilation_rate": [3], "groups": 1, "activation": "linear", "use_bias": true, "kernel_initializer": {"class_name": "GlorotUniform", "config": {"seed": null}}, "bias_initializer": {"class_name": "Zeros", "config": {}}, "kernel_regularizer": null, "bias_regularizer": null, "activity_regularizer": null, "kernel_constraint": null, "bias_constraint": null}, "name": "conv1d_184", "inbound_nodes": [[["dropout_184", 0, 0, {}]]]}, {"class_name": "BatchNormalization", "config": {"name": "batch_normalization_189", "trainable": true, "dtype": "float32", "axis": [2], "momentum": 0.99, "epsilon": 0.001, "center": true, "scale": true, "beta_initializer": {"class_name": "Zeros", "config": {}}, "gamma_initializer": {"class_name": "Ones", "config": {}}, "moving_mean_initializer": {"class_name": "Zeros", "config": {}}, "moving_variance_initializer": {"class_name": "Ones", "config": {}}, "beta_regularizer": null, "gamma_regularizer": null, "beta_constraint": null, "gamma_constraint": null}, "name": "batch_normalization_189", "inbound_nodes": [[["conv1d_184", 0, 0, {}]]]}, {"class_name": "LeakyReLU", "config": {"name": "leaky_re_lu_183", "trainable": true, "dtype": "float32", "alpha": 0.30000001192092896}, "name": "leaky_re_lu_183", "inbound_nodes": [[["batch_normalization_189", 0, 0, {}]]]}, {"class_name": "Dropout", "config": {"name": "dropout_185", "trainable": true, "dtype": "float32", "rate": 0.5, "noise_shape": null, "seed": null}, "name": "dropout_185", "inbound_nodes": [[["leaky_re_lu_183", 0, 0, {}]]]}, {"class_name": "Conv1D", "config": {"name": "conv1d_185", "trainable": true, "dtype": "float32", "filters": 64, "kernel_size": [9], "strides": [1], "padding": "same", "data_format": "channels_last", "dilation_rate": [3], "groups": 1, "activation": "linear", "use_bias": true, "kernel_initializer": {"class_name": "GlorotUniform", "config": {"seed": null}}, "bias_initializer": {"class_name": "Zeros", "config": {}}, "kernel_regularizer": null, "bias_regularizer": null, "activity_regularizer": null, "kernel_constraint": null, "bias_constraint": null}, "name": "conv1d_185", "inbound_nodes": [[["dropout_185", 0, 0, {}]]]}, {"class_name": "Add", "config": {"name": "add_87", "trainable": true, "dtype": "float32"}, "name": "add_87", "inbound_nodes": [[["add_86", 0, 0, {}], ["conv1d_185", 0, 0, {}]]]}, {"class_name": "BatchNormalization", "config": {"name": "batch_normalization_190", "trainable": true, "dtype": "float32", "axis": [2], "momentum": 0.99, "epsilon": 0.001, "center": true, "scale": true, "beta_initializer": {"class_name": "Zeros", "config": {}}, "gamma_initializer": {"class_name": "Ones", "config": {}}, "moving_mean_initializer": {"class_name": "Zeros", "config": {}}, "moving_variance_initializer": {"class_name": "Ones", "config": {}}, "beta_regularizer": null, "gamma_regularizer": null, "beta_constraint": null, "gamma_constraint": null}, "name": "batch_normalization_190", "inbound_nodes": [[["add_87", 0, 0, {}]]]}, {"class_name": "LeakyReLU", "config": {"name": "leaky_re_lu_184", "trainable": true, "dtype": "float32", "alpha": 0.30000001192092896}, "name": "leaky_re_lu_184", "inbound_nodes": [[["batch_normalization_190", 0, 0, {}]]]}, {"class_name": "Dropout", "config": {"name": "dropout_186", "trainable": true, "dtype": "float32", "rate": 0.5, "noise_shape": null, "seed": null}, "name": "dropout_186", "inbound_nodes": [[["leaky_re_lu_184", 0, 0, {}]]]}, {"class_name": "Conv1D", "config": {"name": "conv1d_186", "trainable": true, "dtype": "float32", "filters": 64, "kernel_size": [9], "strides": [1], "padding": "same", "data_format": "channels_last", "dilation_rate": [3], "groups": 1, "activation": "linear", "use_bias": true, "kernel_initializer": {"class_name": "GlorotUniform", "config": {"seed": null}}, "bias_initializer": {"class_name": "Zeros", "config": {}}, "kernel_regularizer": null, "bias_regularizer": null, "activity_regularizer": null, "kernel_constraint": null, "bias_constraint": null}, "name": "conv1d_186", "inbound_nodes": [[["dropout_186", 0, 0, {}]]]}, {"class_name": "BatchNormalization", "config": {"name": "batch_normalization_191", "trainable": true, "dtype": "float32", "axis": [2], "momentum": 0.99, "epsilon": 0.001, "center": true, "scale": true, "beta_initializer": {"class_name": "Zeros", "config": {}}, "gamma_initializer": {"class_name": "Ones", "config": {}}, "moving_mean_initializer": {"class_name": "Zeros", "config": {}}, "moving_variance_initializer": {"class_name": "Ones", "config": {}}, "beta_regularizer": null, "gamma_regularizer": null, "beta_constraint": null, "gamma_constraint": null}, "name": "batch_normalization_191", "inbound_nodes": [[["conv1d_186", 0, 0, {}]]]}, {"class_name": "LeakyReLU", "config": {"name": "leaky_re_lu_185", "trainable": true, "dtype": "float32", "alpha": 0.30000001192092896}, "name": "leaky_re_lu_185", "inbound_nodes": [[["batch_normalization_191", 0, 0, {}]]]}, {"class_name": "Dropout", "config": {"name": "dropout_187", "trainable": true, "dtype": "float32", "rate": 0.5, "noise_shape": null, "seed": null}, "name": "dropout_187", "inbound_nodes": [[["leaky_re_lu_185", 0, 0, {}]]]}, {"class_name": "Conv1D", "config": {"name": "conv1d_187", "trainable": true, "dtype": "float32", "filters": 64, "kernel_size": [9], "strides": [1], "padding": "same", "data_format": "channels_last", "dilation_rate": [3], "groups": 1, "activation": "linear", "use_bias": true, "kernel_initializer": {"class_name": "GlorotUniform", "config": {"seed": null}}, "bias_initializer": {"class_name": "Zeros", "config": {}}, "kernel_regularizer": null, "bias_regularizer": null, "activity_regularizer": null, "kernel_constraint": null, "bias_constraint": null}, "name": "conv1d_187", "inbound_nodes": [[["dropout_187", 0, 0, {}]]]}, {"class_name": "Add", "config": {"name": "add_88", "trainable": true, "dtype": "float32"}, "name": "add_88", "inbound_nodes": [[["add_87", 0, 0, {}], ["conv1d_187", 0, 0, {}]]]}, {"class_name": "BatchNormalization", "config": {"name": "batch_normalization_192", "trainable": true, "dtype": "float32", "axis": [2], "momentum": 0.99, "epsilon": 0.001, "center": true, "scale": true, "beta_initializer": {"class_name": "Zeros", "config": {}}, "gamma_initializer": {"class_name": "Ones", "config": {}}, "moving_mean_initializer": {"class_name": "Zeros", "config": {}}, "moving_variance_initializer": {"class_name": "Ones", "config": {}}, "beta_regularizer": null, "gamma_regularizer": null, "beta_constraint": null, "gamma_constraint": null}, "name": "batch_normalization_192", "inbound_nodes": [[["add_88", 0, 0, {}]]]}, {"class_name": "LeakyReLU", "config": {"name": "leaky_re_lu_186", "trainable": true, "dtype": "float32", "alpha": 0.30000001192092896}, "name": "leaky_re_lu_186", "inbound_nodes": [[["batch_normalization_192", 0, 0, {}]]]}, {"class_name": "Dropout", "config": {"name": "dropout_188", "trainable": true, "dtype": "float32", "rate": 0.5, "noise_shape": null, "seed": null}, "name": "dropout_188", "inbound_nodes": [[["leaky_re_lu_186", 0, 0, {}]]]}, {"class_name": "Conv1D", "config": {"name": "conv1d_188", "trainable": true, "dtype": "float32", "filters": 64, "kernel_size": [9], "strides": [1], "padding": "same", "data_format": "channels_last", "dilation_rate": [3], "groups": 1, "activation": "linear", "use_bias": true, "kernel_initializer": {"class_name": "GlorotUniform", "config": {"seed": null}}, "bias_initializer": {"class_name": "Zeros", "config": {}}, "kernel_regularizer": null, "bias_regularizer": null, "activity_regularizer": null, "kernel_constraint": null, "bias_constraint": null}, "name": "conv1d_188", "inbound_nodes": [[["dropout_188", 0, 0, {}]]]}, {"class_name": "BatchNormalization", "config": {"name": "batch_normalization_193", "trainable": true, "dtype": "float32", "axis": [2], "momentum": 0.99, "epsilon": 0.001, "center": true, "scale": true, "beta_initializer": {"class_name": "Zeros", "config": {}}, "gamma_initializer": {"class_name": "Ones", "config": {}}, "moving_mean_initializer": {"class_name": "Zeros", "config": {}}, "moving_variance_initializer": {"class_name": "Ones", "config": {}}, "beta_regularizer": null, "gamma_regularizer": null, "beta_constraint": null, "gamma_constraint": null}, "name": "batch_normalization_193", "inbound_nodes": [[["conv1d_188", 0, 0, {}]]]}, {"class_name": "LeakyReLU", "config": {"name": "leaky_re_lu_187", "trainable": true, "dtype": "float32", "alpha": 0.30000001192092896}, "name": "leaky_re_lu_187", "inbound_nodes": [[["batch_normalization_193", 0, 0, {}]]]}, {"class_name": "Dropout", "config": {"name": "dropout_189", "trainable": true, "dtype": "float32", "rate": 0.5, "noise_shape": null, "seed": null}, "name": "dropout_189", "inbound_nodes": [[["leaky_re_lu_187", 0, 0, {}]]]}, {"class_name": "Conv1D", "config": {"name": "conv1d_189", "trainable": true, "dtype": "float32", "filters": 64, "kernel_size": [9], "strides": [1], "padding": "same", "data_format": "channels_last", "dilation_rate": [3], "groups": 1, "activation": "linear", "use_bias": true, "kernel_initializer": {"class_name": "GlorotUniform", "config": {"seed": null}}, "bias_initializer": {"class_name": "Zeros", "config": {}}, "kernel_regularizer": null, "bias_regularizer": null, "activity_regularizer": null, "kernel_constraint": null, "bias_constraint": null}, "name": "conv1d_189", "inbound_nodes": [[["dropout_189", 0, 0, {}]]]}, {"class_name": "Add", "config": {"name": "add_89", "trainable": true, "dtype": "float32"}, "name": "add_89", "inbound_nodes": [[["add_88", 0, 0, {}], ["conv1d_189", 0, 0, {}]]]}, {"class_name": "BatchNormalization", "config": {"name": "batch_normalization_194", "trainable": true, "dtype": "float32", "axis": [2], "momentum": 0.99, "epsilon": 0.001, "center": true, "scale": true, "beta_initializer": {"class_name": "Zeros", "config": {}}, "gamma_initializer": {"class_name": "Ones", "config": {}}, "moving_mean_initializer": {"class_name": "Zeros", "config": {}}, "moving_variance_initializer": {"class_name": "Ones", "config": {}}, "beta_regularizer": null, "gamma_regularizer": null, "beta_constraint": null, "gamma_constraint": null}, "name": "batch_normalization_194", "inbound_nodes": [[["add_89", 0, 0, {}]]]}, {"class_name": "LeakyReLU", "config": {"name": "leaky_re_lu_188", "trainable": true, "dtype": "float32", "alpha": 0.30000001192092896}, "name": "leaky_re_lu_188", "inbound_nodes": [[["batch_normalization_194", 0, 0, {}]]]}, {"class_name": "Dropout", "config": {"name": "dropout_190", "trainable": true, "dtype": "float32", "rate": 0.5, "noise_shape": null, "seed": null}, "name": "dropout_190", "inbound_nodes": [[["leaky_re_lu_188", 0, 0, {}]]]}, {"class_name": "Conv1D", "config": {"name": "conv1d_190", "trainable": true, "dtype": "float32", "filters": 64, "kernel_size": [9], "strides": [1], "padding": "same", "data_format": "channels_last", "dilation_rate": [3], "groups": 1, "activation": "linear", "use_bias": true, "kernel_initializer": {"class_name": "GlorotUniform", "config": {"seed": null}}, "bias_initializer": {"class_name": "Zeros", "config": {}}, "kernel_regularizer": null, "bias_regularizer": null, "activity_regularizer": null, "kernel_constraint": null, "bias_constraint": null}, "name": "conv1d_190", "inbound_nodes": [[["dropout_190", 0, 0, {}]]]}, {"class_name": "BatchNormalization", "config": {"name": "batch_normalization_195", "trainable": true, "dtype": "float32", "axis": [2], "momentum": 0.99, "epsilon": 0.001, "center": true, "scale": true, "beta_initializer": {"class_name": "Zeros", "config": {}}, "gamma_initializer": {"class_name": "Ones", "config": {}}, "moving_mean_initializer": {"class_name": "Zeros", "config": {}}, "moving_variance_initializer": {"class_name": "Ones", "config": {}}, "beta_regularizer": null, "gamma_regularizer": null, "beta_constraint": null, "gamma_constraint": null}, "name": "batch_normalization_195", "inbound_nodes": [[["conv1d_190", 0, 0, {}]]]}, {"class_name": "LeakyReLU", "config": {"name": "leaky_re_lu_189", "trainable": true, "dtype": "float32", "alpha": 0.30000001192092896}, "name": "leaky_re_lu_189", "inbound_nodes": [[["batch_normalization_195", 0, 0, {}]]]}, {"class_name": "Dropout", "config": {"name": "dropout_191", "trainable": true, "dtype": "float32", "rate": 0.5, "noise_shape": null, "seed": null}, "name": "dropout_191", "inbound_nodes": [[["leaky_re_lu_189", 0, 0, {}]]]}, {"class_name": "Conv1D", "config": {"name": "conv1d_191", "trainable": true, "dtype": "float32", "filters": 64, "kernel_size": [9], "strides": [1], "padding": "same", "data_format": "channels_last", "dilation_rate": [3], "groups": 1, "activation": "linear", "use_bias": true, "kernel_initializer": {"class_name": "GlorotUniform", "config": {"seed": null}}, "bias_initializer": {"class_name": "Zeros", "config": {}}, "kernel_regularizer": null, "bias_regularizer": null, "activity_regularizer": null, "kernel_constraint": null, "bias_constraint": null}, "name": "conv1d_191", "inbound_nodes": [[["dropout_191", 0, 0, {}]]]}, {"class_name": "Add", "config": {"name": "add_90", "trainable": true, "dtype": "float32"}, "name": "add_90", "inbound_nodes": [[["add_89", 0, 0, {}], ["conv1d_191", 0, 0, {}]]]}, {"class_name": "BatchNormalization", "config": {"name": "batch_normalization_196", "trainable": true, "dtype": "float32", "axis": [2], "momentum": 0.99, "epsilon": 0.001, "center": true, "scale": true, "beta_initializer": {"class_name": "Zeros", "config": {}}, "gamma_initializer": {"class_name": "Ones", "config": {}}, "moving_mean_initializer": {"class_name": "Zeros", "config": {}}, "moving_variance_initializer": {"class_name": "Ones", "config": {}}, "beta_regularizer": null, "gamma_regularizer": null, "beta_constraint": null, "gamma_constraint": null}, "name": "batch_normalization_196", "inbound_nodes": [[["add_90", 0, 0, {}]]]}, {"class_name": "LeakyReLU", "config": {"name": "leaky_re_lu_190", "trainable": true, "dtype": "float32", "alpha": 0.30000001192092896}, "name": "leaky_re_lu_190", "inbound_nodes": [[["batch_normalization_196", 0, 0, {}]]]}, {"class_name": "Dropout", "config": {"name": "dropout_192", "trainable": true, "dtype": "float32", "rate": 0.5, "noise_shape": null, "seed": null}, "name": "dropout_192", "inbound_nodes": [[["leaky_re_lu_190", 0, 0, {}]]]}, {"class_name": "Conv1D", "config": {"name": "conv1d_192", "trainable": true, "dtype": "float32", "filters": 64, "kernel_size": [9], "strides": [1], "padding": "same", "data_format": "channels_last", "dilation_rate": [3], "groups": 1, "activation": "linear", "use_bias": true, "kernel_initializer": {"class_name": "GlorotUniform", "config": {"seed": null}}, "bias_initializer": {"class_name": "Zeros", "config": {}}, "kernel_regularizer": null, "bias_regularizer": null, "activity_regularizer": null, "kernel_constraint": null, "bias_constraint": null}, "name": "conv1d_192", "inbound_nodes": [[["dropout_192", 0, 0, {}]]]}, {"class_name": "BatchNormalization", "config": {"name": "batch_normalization_197", "trainable": true, "dtype": "float32", "axis": [2], "momentum": 0.99, "epsilon": 0.001, "center": true, "scale": true, "beta_initializer": {"class_name": "Zeros", "config": {}}, "gamma_initializer": {"class_name": "Ones", "config": {}}, "moving_mean_initializer": {"class_name": "Zeros", "config": {}}, "moving_variance_initializer": {"class_name": "Ones", "config": {}}, "beta_regularizer": null, "gamma_regularizer": null, "beta_constraint": null, "gamma_constraint": null}, "name": "batch_normalization_197", "inbound_nodes": [[["conv1d_192", 0, 0, {}]]]}, {"class_name": "LeakyReLU", "config": {"name": "leaky_re_lu_191", "trainable": true, "dtype": "float32", "alpha": 0.30000001192092896}, "name": "leaky_re_lu_191", "inbound_nodes": [[["batch_normalization_197", 0, 0, {}]]]}, {"class_name": "Dropout", "config": {"name": "dropout_193", "trainable": true, "dtype": "float32", "rate": 0.5, "noise_shape": null, "seed": null}, "name": "dropout_193", "inbound_nodes": [[["leaky_re_lu_191", 0, 0, {}]]]}, {"class_name": "Conv1D", "config": {"name": "conv1d_193", "trainable": true, "dtype": "float32", "filters": 64, "kernel_size": [9], "strides": [1], "padding": "same", "data_format": "channels_last", "dilation_rate": [3], "groups": 1, "activation": "linear", "use_bias": true, "kernel_initializer": {"class_name": "GlorotUniform", "config": {"seed": null}}, "bias_initializer": {"class_name": "Zeros", "config": {}}, "kernel_regularizer": null, "bias_regularizer": null, "activity_regularizer": null, "kernel_constraint": null, "bias_constraint": null}, "name": "conv1d_193", "inbound_nodes": [[["dropout_193", 0, 0, {}]]]}, {"class_name": "Add", "config": {"name": "add_91", "trainable": true, "dtype": "float32"}, "name": "add_91", "inbound_nodes": [[["add_90", 0, 0, {}], ["conv1d_193", 0, 0, {}]]]}, {"class_name": "BatchNormalization", "config": {"name": "batch_normalization_198", "trainable": true, "dtype": "float32", "axis": [2], "momentum": 0.99, "epsilon": 0.001, "center": true, "scale": true, "beta_initializer": {"class_name": "Zeros", "config": {}}, "gamma_initializer": {"class_name": "Ones", "config": {}}, "moving_mean_initializer": {"class_name": "Zeros", "config": {}}, "moving_variance_initializer": {"class_name": "Ones", "config": {}}, "beta_regularizer": null, "gamma_regularizer": null, "beta_constraint": null, "gamma_constraint": null}, "name": "batch_normalization_198", "inbound_nodes": [[["add_91", 0, 0, {}]]]}, {"class_name": "LeakyReLU", "config": {"name": "leaky_re_lu_192", "trainable": true, "dtype": "float32", "alpha": 0.30000001192092896}, "name": "leaky_re_lu_192", "inbound_nodes": [[["batch_normalization_198", 0, 0, {}]]]}, {"class_name": "Dropout", "config": {"name": "dropout_194", "trainable": true, "dtype": "float32", "rate": 0.5, "noise_shape": null, "seed": null}, "name": "dropout_194", "inbound_nodes": [[["leaky_re_lu_192", 0, 0, {}]]]}, {"class_name": "Conv1D", "config": {"name": "conv1d_194", "trainable": true, "dtype": "float32", "filters": 64, "kernel_size": [9], "strides": [1], "padding": "same", "data_format": "channels_last", "dilation_rate": [3], "groups": 1, "activation": "linear", "use_bias": true, "kernel_initializer": {"class_name": "GlorotUniform", "config": {"seed": null}}, "bias_initializer": {"class_name": "Zeros", "config": {}}, "kernel_regularizer": null, "bias_regularizer": null, "activity_regularizer": null, "kernel_constraint": null, "bias_constraint": null}, "name": "conv1d_194", "inbound_nodes": [[["dropout_194", 0, 0, {}]]]}, {"class_name": "BatchNormalization", "config": {"name": "batch_normalization_199", "trainable": true, "dtype": "float32", "axis": [2], "momentum": 0.99, "epsilon": 0.001, "center": true, "scale": true, "beta_initializer": {"class_name": "Zeros", "config": {}}, "gamma_initializer": {"class_name": "Ones", "config": {}}, "moving_mean_initializer": {"class_name": "Zeros", "config": {}}, "moving_variance_initializer": {"class_name": "Ones", "config": {}}, "beta_regularizer": null, "gamma_regularizer": null, "beta_constraint": null, "gamma_constraint": null}, "name": "batch_normalization_199", "inbound_nodes": [[["conv1d_194", 0, 0, {}]]]}, {"class_name": "LeakyReLU", "config": {"name": "leaky_re_lu_193", "trainable": true, "dtype": "float32", "alpha": 0.30000001192092896}, "name": "leaky_re_lu_193", "inbound_nodes": [[["batch_normalization_199", 0, 0, {}]]]}, {"class_name": "Dropout", "config": {"name": "dropout_195", "trainable": true, "dtype": "float32", "rate": 0.5, "noise_shape": null, "seed": null}, "name": "dropout_195", "inbound_nodes": [[["leaky_re_lu_193", 0, 0, {}]]]}, {"class_name": "Conv1D", "config": {"name": "conv1d_195", "trainable": true, "dtype": "float32", "filters": 64, "kernel_size": [9], "strides": [1], "padding": "same", "data_format": "channels_last", "dilation_rate": [3], "groups": 1, "activation": "linear", "use_bias": true, "kernel_initializer": {"class_name": "GlorotUniform", "config": {"seed": null}}, "bias_initializer": {"class_name": "Zeros", "config": {}}, "kernel_regularizer": null, "bias_regularizer": null, "activity_regularizer": null, "kernel_constraint": null, "bias_constraint": null}, "name": "conv1d_195", "inbound_nodes": [[["dropout_195", 0, 0, {}]]]}, {"class_name": "Add", "config": {"name": "add_92", "trainable": true, "dtype": "float32"}, "name": "add_92", "inbound_nodes": [[["add_91", 0, 0, {}], ["conv1d_195", 0, 0, {}]]]}, {"class_name": "BatchNormalization", "config": {"name": "batch_normalization_200", "trainable": true, "dtype": "float32", "axis": [2], "momentum": 0.99, "epsilon": 0.001, "center": true, "scale": true, "beta_initializer": {"class_name": "Zeros", "config": {}}, "gamma_initializer": {"class_name": "Ones", "config": {}}, "moving_mean_initializer": {"class_name": "Zeros", "config": {}}, "moving_variance_initializer": {"class_name": "Ones", "config": {}}, "beta_regularizer": null, "gamma_regularizer": null, "beta_constraint": null, "gamma_constraint": null}, "name": "batch_normalization_200", "inbound_nodes": [[["add_92", 0, 0, {}]]]}, {"class_name": "LeakyReLU", "config": {"name": "leaky_re_lu_194", "trainable": true, "dtype": "float32", "alpha": 0.30000001192092896}, "name": "leaky_re_lu_194", "inbound_nodes": [[["batch_normalization_200", 0, 0, {}]]]}, {"class_name": "Dropout", "config": {"name": "dropout_196", "trainable": true, "dtype": "float32", "rate": 0.5, "noise_shape": null, "seed": null}, "name": "dropout_196", "inbound_nodes": [[["leaky_re_lu_194", 0, 0, {}]]]}, {"class_name": "Conv1D", "config": {"name": "conv1d_196", "trainable": true, "dtype": "float32", "filters": 64, "kernel_size": [9], "strides": [1], "padding": "same", "data_format": "channels_last", "dilation_rate": [3], "groups": 1, "activation": "linear", "use_bias": true, "kernel_initializer": {"class_name": "GlorotUniform", "config": {"seed": null}}, "bias_initializer": {"class_name": "Zeros", "config": {}}, "kernel_regularizer": null, "bias_regularizer": null, "activity_regularizer": null, "kernel_constraint": null, "bias_constraint": null}, "name": "conv1d_196", "inbound_nodes": [[["dropout_196", 0, 0, {}]]]}, {"class_name": "BatchNormalization", "config": {"name": "batch_normalization_201", "trainable": true, "dtype": "float32", "axis": [2], "momentum": 0.99, "epsilon": 0.001, "center": true, "scale": true, "beta_initializer": {"class_name": "Zeros", "config": {}}, "gamma_initializer": {"class_name": "Ones", "config": {}}, "moving_mean_initializer": {"class_name": "Zeros", "config": {}}, "moving_variance_initializer": {"class_name": "Ones", "config": {}}, "beta_regularizer": null, "gamma_regularizer": null, "beta_constraint": null, "gamma_constraint": null}, "name": "batch_normalization_201", "inbound_nodes": [[["conv1d_196", 0, 0, {}]]]}, {"class_name": "LeakyReLU", "config": {"name": "leaky_re_lu_195", "trainable": true, "dtype": "float32", "alpha": 0.30000001192092896}, "name": "leaky_re_lu_195", "inbound_nodes": [[["batch_normalization_201", 0, 0, {}]]]}, {"class_name": "Dropout", "config": {"name": "dropout_197", "trainable": true, "dtype": "float32", "rate": 0.5, "noise_shape": null, "seed": null}, "name": "dropout_197", "inbound_nodes": [[["leaky_re_lu_195", 0, 0, {}]]]}, {"class_name": "Conv1D", "config": {"name": "conv1d_197", "trainable": true, "dtype": "float32", "filters": 64, "kernel_size": [9], "strides": [1], "padding": "same", "data_format": "channels_last", "dilation_rate": [3], "groups": 1, "activation": "linear", "use_bias": true, "kernel_initializer": {"class_name": "GlorotUniform", "config": {"seed": null}}, "bias_initializer": {"class_name": "Zeros", "config": {}}, "kernel_regularizer": null, "bias_regularizer": null, "activity_regularizer": null, "kernel_constraint": null, "bias_constraint": null}, "name": "conv1d_197", "inbound_nodes": [[["dropout_197", 0, 0, {}]]]}, {"class_name": "Add", "config": {"name": "add_93", "trainable": true, "dtype": "float32"}, "name": "add_93", "inbound_nodes": [[["add_92", 0, 0, {}], ["conv1d_197", 0, 0, {}]]]}, {"class_name": "BatchNormalization", "config": {"name": "batch_normalization_202", "trainable": true, "dtype": "float32", "axis": [2], "momentum": 0.99, "epsilon": 0.001, "center": true, "scale": true, "beta_initializer": {"class_name": "Zeros", "config": {}}, "gamma_initializer": {"class_name": "Ones", "config": {}}, "moving_mean_initializer": {"class_name": "Zeros", "config": {}}, "moving_variance_initializer": {"class_name": "Ones", "config": {}}, "beta_regularizer": null, "gamma_regularizer": null, "beta_constraint": null, "gamma_constraint": null}, "name": "batch_normalization_202", "inbound_nodes": [[["add_93", 0, 0, {}]]]}, {"class_name": "LeakyReLU", "config": {"name": "leaky_re_lu_196", "trainable": true, "dtype": "float32", "alpha": 0.30000001192092896}, "name": "leaky_re_lu_196", "inbound_nodes": [[["batch_normalization_202", 0, 0, {}]]]}, {"class_name": "Dropout", "config": {"name": "dropout_198", "trainable": true, "dtype": "float32", "rate": 0.5, "noise_shape": null, "seed": null}, "name": "dropout_198", "inbound_nodes": [[["leaky_re_lu_196", 0, 0, {}]]]}, {"class_name": "Conv1D", "config": {"name": "conv1d_198", "trainable": true, "dtype": "float32", "filters": 64, "kernel_size": [9], "strides": [1], "padding": "same", "data_format": "channels_last", "dilation_rate": [3], "groups": 1, "activation": "linear", "use_bias": true, "kernel_initializer": {"class_name": "GlorotUniform", "config": {"seed": null}}, "bias_initializer": {"class_name": "Zeros", "config": {}}, "kernel_regularizer": null, "bias_regularizer": null, "activity_regularizer": null, "kernel_constraint": null, "bias_constraint": null}, "name": "conv1d_198", "inbound_nodes": [[["dropout_198", 0, 0, {}]]]}, {"class_name": "BatchNormalization", "config": {"name": "batch_normalization_203", "trainable": true, "dtype": "float32", "axis": [2], "momentum": 0.99, "epsilon": 0.001, "center": true, "scale": true, "beta_initializer": {"class_name": "Zeros", "config": {}}, "gamma_initializer": {"class_name": "Ones", "config": {}}, "moving_mean_initializer": {"class_name": "Zeros", "config": {}}, "moving_variance_initializer": {"class_name": "Ones", "config": {}}, "beta_regularizer": null, "gamma_regularizer": null, "beta_constraint": null, "gamma_constraint": null}, "name": "batch_normalization_203", "inbound_nodes": [[["conv1d_198", 0, 0, {}]]]}, {"class_name": "LeakyReLU", "config": {"name": "leaky_re_lu_197", "trainable": true, "dtype": "float32", "alpha": 0.30000001192092896}, "name": "leaky_re_lu_197", "inbound_nodes": [[["batch_normalization_203", 0, 0, {}]]]}, {"class_name": "Dropout", "config": {"name": "dropout_199", "trainable": true, "dtype": "float32", "rate": 0.5, "noise_shape": null, "seed": null}, "name": "dropout_199", "inbound_nodes": [[["leaky_re_lu_197", 0, 0, {}]]]}, {"class_name": "Conv1D", "config": {"name": "conv1d_199", "trainable": true, "dtype": "float32", "filters": 64, "kernel_size": [9], "strides": [1], "padding": "same", "data_format": "channels_last", "dilation_rate": [3], "groups": 1, "activation": "linear", "use_bias": true, "kernel_initializer": {"class_name": "GlorotUniform", "config": {"seed": null}}, "bias_initializer": {"class_name": "Zeros", "config": {}}, "kernel_regularizer": null, "bias_regularizer": null, "activity_regularizer": null, "kernel_constraint": null, "bias_constraint": null}, "name": "conv1d_199", "inbound_nodes": [[["dropout_199", 0, 0, {}]]]}, {"class_name": "Add", "config": {"name": "add_94", "trainable": true, "dtype": "float32"}, "name": "add_94", "inbound_nodes": [[["add_93", 0, 0, {}], ["conv1d_199", 0, 0, {}]]]}, {"class_name": "BatchNormalization", "config": {"name": "batch_normalization_204", "trainable": true, "dtype": "float32", "axis": [2], "momentum": 0.99, "epsilon": 0.001, "center": true, "scale": true, "beta_initializer": {"class_name": "Zeros", "config": {}}, "gamma_initializer": {"class_name": "Ones", "config": {}}, "moving_mean_initializer": {"class_name": "Zeros", "config": {}}, "moving_variance_initializer": {"class_name": "Ones", "config": {}}, "beta_regularizer": null, "gamma_regularizer": null, "beta_constraint": null, "gamma_constraint": null}, "name": "batch_normalization_204", "inbound_nodes": [[["add_94", 0, 0, {}]]]}, {"class_name": "LeakyReLU", "config": {"name": "leaky_re_lu_198", "trainable": true, "dtype": "float32", "alpha": 0.30000001192092896}, "name": "leaky_re_lu_198", "inbound_nodes": [[["batch_normalization_204", 0, 0, {}]]]}, {"class_name": "Dropout", "config": {"name": "dropout_200", "trainable": true, "dtype": "float32", "rate": 0.5, "noise_shape": null, "seed": null}, "name": "dropout_200", "inbound_nodes": [[["leaky_re_lu_198", 0, 0, {}]]]}, {"class_name": "Conv1D", "config": {"name": "conv1d_200", "trainable": true, "dtype": "float32", "filters": 64, "kernel_size": [9], "strides": [1], "padding": "same", "data_format": "channels_last", "dilation_rate": [3], "groups": 1, "activation": "linear", "use_bias": true, "kernel_initializer": {"class_name": "GlorotUniform", "config": {"seed": null}}, "bias_initializer": {"class_name": "Zeros", "config": {}}, "kernel_regularizer": null, "bias_regularizer": null, "activity_regularizer": null, "kernel_constraint": null, "bias_constraint": null}, "name": "conv1d_200", "inbound_nodes": [[["dropout_200", 0, 0, {}]]]}, {"class_name": "BatchNormalization", "config": {"name": "batch_normalization_205", "trainable": true, "dtype": "float32", "axis": [2], "momentum": 0.99, "epsilon": 0.001, "center": true, "scale": true, "beta_initializer": {"class_name": "Zeros", "config": {}}, "gamma_initializer": {"class_name": "Ones", "config": {}}, "moving_mean_initializer": {"class_name": "Zeros", "config": {}}, "moving_variance_initializer": {"class_name": "Ones", "config": {}}, "beta_regularizer": null, "gamma_regularizer": null, "beta_constraint": null, "gamma_constraint": null}, "name": "batch_normalization_205", "inbound_nodes": [[["conv1d_200", 0, 0, {}]]]}, {"class_name": "LeakyReLU", "config": {"name": "leaky_re_lu_199", "trainable": true, "dtype": "float32", "alpha": 0.30000001192092896}, "name": "leaky_re_lu_199", "inbound_nodes": [[["batch_normalization_205", 0, 0, {}]]]}, {"class_name": "Dropout", "config": {"name": "dropout_201", "trainable": true, "dtype": "float32", "rate": 0.5, "noise_shape": null, "seed": null}, "name": "dropout_201", "inbound_nodes": [[["leaky_re_lu_199", 0, 0, {}]]]}, {"class_name": "Conv1D", "config": {"name": "conv1d_201", "trainable": true, "dtype": "float32", "filters": 64, "kernel_size": [9], "strides": [1], "padding": "same", "data_format": "channels_last", "dilation_rate": [3], "groups": 1, "activation": "linear", "use_bias": true, "kernel_initializer": {"class_name": "GlorotUniform", "config": {"seed": null}}, "bias_initializer": {"class_name": "Zeros", "config": {}}, "kernel_regularizer": null, "bias_regularizer": null, "activity_regularizer": null, "kernel_constraint": null, "bias_constraint": null}, "name": "conv1d_201", "inbound_nodes": [[["dropout_201", 0, 0, {}]]]}, {"class_name": "Add", "config": {"name": "add_95", "trainable": true, "dtype": "float32"}, "name": "add_95", "inbound_nodes": [[["add_94", 0, 0, {}], ["conv1d_201", 0, 0, {}]]]}, {"class_name": "BatchNormalization", "config": {"name": "batch_normalization_206", "trainable": true, "dtype": "float32", "axis": [2], "momentum": 0.99, "epsilon": 0.001, "center": true, "scale": true, "beta_initializer": {"class_name": "Zeros", "config": {}}, "gamma_initializer": {"class_name": "Ones", "config": {}}, "moving_mean_initializer": {"class_name": "Zeros", "config": {}}, "moving_variance_initializer": {"class_name": "Ones", "config": {}}, "beta_regularizer": null, "gamma_regularizer": null, "beta_constraint": null, "gamma_constraint": null}, "name": "batch_normalization_206", "inbound_nodes": [[["add_95", 0, 0, {}]]]}, {"class_name": "LeakyReLU", "config": {"name": "leaky_re_lu_200", "trainable": true, "dtype": "float32", "alpha": 0.30000001192092896}, "name": "leaky_re_lu_200", "inbound_nodes": [[["batch_normalization_206", 0, 0, {}]]]}, {"class_name": "Dropout", "config": {"name": "dropout_202", "trainable": true, "dtype": "float32", "rate": 0.5, "noise_shape": null, "seed": null}, "name": "dropout_202", "inbound_nodes": [[["leaky_re_lu_200", 0, 0, {}]]]}, {"class_name": "Conv1D", "config": {"name": "conv1d_202", "trainable": true, "dtype": "float32", "filters": 64, "kernel_size": [9], "strides": [1], "padding": "same", "data_format": "channels_last", "dilation_rate": [3], "groups": 1, "activation": "linear", "use_bias": true, "kernel_initializer": {"class_name": "GlorotUniform", "config": {"seed": null}}, "bias_initializer": {"class_name": "Zeros", "config": {}}, "kernel_regularizer": null, "bias_regularizer": null, "activity_regularizer": null, "kernel_constraint": null, "bias_constraint": null}, "name": "conv1d_202", "inbound_nodes": [[["dropout_202", 0, 0, {}]]]}, {"class_name": "BatchNormalization", "config": {"name": "batch_normalization_207", "trainable": true, "dtype": "float32", "axis": [2], "momentum": 0.99, "epsilon": 0.001, "center": true, "scale": true, "beta_initializer": {"class_name": "Zeros", "config": {}}, "gamma_initializer": {"class_name": "Ones", "config": {}}, "moving_mean_initializer": {"class_name": "Zeros", "config": {}}, "moving_variance_initializer": {"class_name": "Ones", "config": {}}, "beta_regularizer": null, "gamma_regularizer": null, "beta_constraint": null, "gamma_constraint": null}, "name": "batch_normalization_207", "inbound_nodes": [[["conv1d_202", 0, 0, {}]]]}, {"class_name": "LeakyReLU", "config": {"name": "leaky_re_lu_201", "trainable": true, "dtype": "float32", "alpha": 0.30000001192092896}, "name": "leaky_re_lu_201", "inbound_nodes": [[["batch_normalization_207", 0, 0, {}]]]}, {"class_name": "Dropout", "config": {"name": "dropout_203", "trainable": true, "dtype": "float32", "rate": 0.5, "noise_shape": null, "seed": null}, "name": "dropout_203", "inbound_nodes": [[["leaky_re_lu_201", 0, 0, {}]]]}, {"class_name": "Conv1D", "config": {"name": "conv1d_203", "trainable": true, "dtype": "float32", "filters": 64, "kernel_size": [9], "strides": [1], "padding": "same", "data_format": "channels_last", "dilation_rate": [3], "groups": 1, "activation": "linear", "use_bias": true, "kernel_initializer": {"class_name": "GlorotUniform", "config": {"seed": null}}, "bias_initializer": {"class_name": "Zeros", "config": {}}, "kernel_regularizer": null, "bias_regularizer": null, "activity_regularizer": null, "kernel_constraint": null, "bias_constraint": null}, "name": "conv1d_203", "inbound_nodes": [[["dropout_203", 0, 0, {}]]]}, {"class_name": "Add", "config": {"name": "add_96", "trainable": true, "dtype": "float32"}, "name": "add_96", "inbound_nodes": [[["add_95", 0, 0, {}], ["conv1d_203", 0, 0, {}]]]}, {"class_name": "BatchNormalization", "config": {"name": "batch_normalization_208", "trainable": true, "dtype": "float32", "axis": [2], "momentum": 0.99, "epsilon": 0.001, "center": true, "scale": true, "beta_initializer": {"class_name": "Zeros", "config": {}}, "gamma_initializer": {"class_name": "Ones", "config": {}}, "moving_mean_initializer": {"class_name": "Zeros", "config": {}}, "moving_variance_initializer": {"class_name": "Ones", "config": {}}, "beta_regularizer": null, "gamma_regularizer": null, "beta_constraint": null, "gamma_constraint": null}, "name": "batch_normalization_208", "inbound_nodes": [[["add_96", 0, 0, {}]]]}, {"class_name": "LeakyReLU", "config": {"name": "leaky_re_lu_202", "trainable": true, "dtype": "float32", "alpha": 0.30000001192092896}, "name": "leaky_re_lu_202", "inbound_nodes": [[["batch_normalization_208", 0, 0, {}]]]}, {"class_name": "Dropout", "config": {"name": "dropout_204", "trainable": true, "dtype": "float32", "rate": 0.5, "noise_shape": null, "seed": null}, "name": "dropout_204", "inbound_nodes": [[["leaky_re_lu_202", 0, 0, {}]]]}, {"class_name": "Conv1D", "config": {"name": "conv1d_204", "trainable": true, "dtype": "float32", "filters": 64, "kernel_size": [9], "strides": [1], "padding": "same", "data_format": "channels_last", "dilation_rate": [3], "groups": 1, "activation": "linear", "use_bias": true, "kernel_initializer": {"class_name": "GlorotUniform", "config": {"seed": null}}, "bias_initializer": {"class_name": "Zeros", "config": {}}, "kernel_regularizer": null, "bias_regularizer": null, "activity_regularizer": null, "kernel_constraint": null, "bias_constraint": null}, "name": "conv1d_204", "inbound_nodes": [[["dropout_204", 0, 0, {}]]]}, {"class_name": "BatchNormalization", "config": {"name": "batch_normalization_209", "trainable": true, "dtype": "float32", "axis": [2], "momentum": 0.99, "epsilon": 0.001, "center": true, "scale": true, "beta_initializer": {"class_name": "Zeros", "config": {}}, "gamma_initializer": {"class_name": "Ones", "config": {}}, "moving_mean_initializer": {"class_name": "Zeros", "config": {}}, "moving_variance_initializer": {"class_name": "Ones", "config": {}}, "beta_regularizer": null, "gamma_regularizer": null, "beta_constraint": null, "gamma_constraint": null}, "name": "batch_normalization_209", "inbound_nodes": [[["conv1d_204", 0, 0, {}]]]}, {"class_name": "LeakyReLU", "config": {"name": "leaky_re_lu_203", "trainable": true, "dtype": "float32", "alpha": 0.30000001192092896}, "name": "leaky_re_lu_203", "inbound_nodes": [[["batch_normalization_209", 0, 0, {}]]]}, {"class_name": "Dropout", "config": {"name": "dropout_205", "trainable": true, "dtype": "float32", "rate": 0.5, "noise_shape": null, "seed": null}, "name": "dropout_205", "inbound_nodes": [[["leaky_re_lu_203", 0, 0, {}]]]}, {"class_name": "Conv1D", "config": {"name": "conv1d_205", "trainable": true, "dtype": "float32", "filters": 64, "kernel_size": [9], "strides": [1], "padding": "same", "data_format": "channels_last", "dilation_rate": [3], "groups": 1, "activation": "linear", "use_bias": true, "kernel_initializer": {"class_name": "GlorotUniform", "config": {"seed": null}}, "bias_initializer": {"class_name": "Zeros", "config": {}}, "kernel_regularizer": null, "bias_regularizer": null, "activity_regularizer": null, "kernel_constraint": null, "bias_constraint": null}, "name": "conv1d_205", "inbound_nodes": [[["dropout_205", 0, 0, {}]]]}, {"class_name": "Add", "config": {"name": "add_97", "trainable": true, "dtype": "float32"}, "name": "add_97", "inbound_nodes": [[["add_96", 0, 0, {}], ["conv1d_205", 0, 0, {}]]]}, {"class_name": "BatchNormalization", "config": {"name": "batch_normalization_210", "trainable": true, "dtype": "float32", "axis": [2], "momentum": 0.99, "epsilon": 0.001, "center": true, "scale": true, "beta_initializer": {"class_name": "Zeros", "config": {}}, "gamma_initializer": {"class_name": "Ones", "config": {}}, "moving_mean_initializer": {"class_name": "Zeros", "config": {}}, "moving_variance_initializer": {"class_name": "Ones", "config": {}}, "beta_regularizer": null, "gamma_regularizer": null, "beta_constraint": null, "gamma_constraint": null}, "name": "batch_normalization_210", "inbound_nodes": [[["add_97", 0, 0, {}]]]}, {"class_name": "LeakyReLU", "config": {"name": "leaky_re_lu_204", "trainable": true, "dtype": "float32", "alpha": 0.30000001192092896}, "name": "leaky_re_lu_204", "inbound_nodes": [[["batch_normalization_210", 0, 0, {}]]]}, {"class_name": "Dropout", "config": {"name": "dropout_206", "trainable": true, "dtype": "float32", "rate": 0.5, "noise_shape": null, "seed": null}, "name": "dropout_206", "inbound_nodes": [[["leaky_re_lu_204", 0, 0, {}]]]}, {"class_name": "Conv1D", "config": {"name": "conv1d_206", "trainable": true, "dtype": "float32", "filters": 64, "kernel_size": [9], "strides": [1], "padding": "same", "data_format": "channels_last", "dilation_rate": [3], "groups": 1, "activation": "linear", "use_bias": true, "kernel_initializer": {"class_name": "GlorotUniform", "config": {"seed": null}}, "bias_initializer": {"class_name": "Zeros", "config": {}}, "kernel_regularizer": null, "bias_regularizer": null, "activity_regularizer": null, "kernel_constraint": null, "bias_constraint": null}, "name": "conv1d_206", "inbound_nodes": [[["dropout_206", 0, 0, {}]]]}, {"class_name": "BatchNormalization", "config": {"name": "batch_normalization_211", "trainable": true, "dtype": "float32", "axis": [2], "momentum": 0.99, "epsilon": 0.001, "center": true, "scale": true, "beta_initializer": {"class_name": "Zeros", "config": {}}, "gamma_initializer": {"class_name": "Ones", "config": {}}, "moving_mean_initializer": {"class_name": "Zeros", "config": {}}, "moving_variance_initializer": {"class_name": "Ones", "config": {}}, "beta_regularizer": null, "gamma_regularizer": null, "beta_constraint": null, "gamma_constraint": null}, "name": "batch_normalization_211", "inbound_nodes": [[["conv1d_206", 0, 0, {}]]]}, {"class_name": "LeakyReLU", "config": {"name": "leaky_re_lu_205", "trainable": true, "dtype": "float32", "alpha": 0.30000001192092896}, "name": "leaky_re_lu_205", "inbound_nodes": [[["batch_normalization_211", 0, 0, {}]]]}, {"class_name": "Dropout", "config": {"name": "dropout_207", "trainable": true, "dtype": "float32", "rate": 0.5, "noise_shape": null, "seed": null}, "name": "dropout_207", "inbound_nodes": [[["leaky_re_lu_205", 0, 0, {}]]]}, {"class_name": "Conv1D", "config": {"name": "conv1d_207", "trainable": true, "dtype": "float32", "filters": 64, "kernel_size": [9], "strides": [1], "padding": "same", "data_format": "channels_last", "dilation_rate": [3], "groups": 1, "activation": "linear", "use_bias": true, "kernel_initializer": {"class_name": "GlorotUniform", "config": {"seed": null}}, "bias_initializer": {"class_name": "Zeros", "config": {}}, "kernel_regularizer": null, "bias_regularizer": null, "activity_regularizer": null, "kernel_constraint": null, "bias_constraint": null}, "name": "conv1d_207", "inbound_nodes": [[["dropout_207", 0, 0, {}]]]}, {"class_name": "Add", "config": {"name": "add_98", "trainable": true, "dtype": "float32"}, "name": "add_98", "inbound_nodes": [[["add_97", 0, 0, {}], ["conv1d_207", 0, 0, {}]]]}, {"class_name": "BatchNormalization", "config": {"name": "batch_normalization_212", "trainable": true, "dtype": "float32", "axis": [2], "momentum": 0.99, "epsilon": 0.001, "center": true, "scale": true, "beta_initializer": {"class_name": "Zeros", "config": {}}, "gamma_initializer": {"class_name": "Ones", "config": {}}, "moving_mean_initializer": {"class_name": "Zeros", "config": {}}, "moving_variance_initializer": {"class_name": "Ones", "config": {}}, "beta_regularizer": null, "gamma_regularizer": null, "beta_constraint": null, "gamma_constraint": null}, "name": "batch_normalization_212", "inbound_nodes": [[["add_98", 0, 0, {}]]]}, {"class_name": "LeakyReLU", "config": {"name": "leaky_re_lu_206", "trainable": true, "dtype": "float32", "alpha": 0.30000001192092896}, "name": "leaky_re_lu_206", "inbound_nodes": [[["batch_normalization_212", 0, 0, {}]]]}, {"class_name": "Dropout", "config": {"name": "dropout_208", "trainable": true, "dtype": "float32", "rate": 0.5, "noise_shape": null, "seed": null}, "name": "dropout_208", "inbound_nodes": [[["leaky_re_lu_206", 0, 0, {}]]]}, {"class_name": "Conv1D", "config": {"name": "conv1d_208", "trainable": true, "dtype": "float32", "filters": 64, "kernel_size": [9], "strides": [1], "padding": "same", "data_format": "channels_last", "dilation_rate": [3], "groups": 1, "activation": "linear", "use_bias": true, "kernel_initializer": {"class_name": "GlorotUniform", "config": {"seed": null}}, "bias_initializer": {"class_name": "Zeros", "config": {}}, "kernel_regularizer": null, "bias_regularizer": null, "activity_regularizer": null, "kernel_constraint": null, "bias_constraint": null}, "name": "conv1d_208", "inbound_nodes": [[["dropout_208", 0, 0, {}]]]}, {"class_name": "BatchNormalization", "config": {"name": "batch_normalization_213", "trainable": true, "dtype": "float32", "axis": [2], "momentum": 0.99, "epsilon": 0.001, "center": true, "scale": true, "beta_initializer": {"class_name": "Zeros", "config": {}}, "gamma_initializer": {"class_name": "Ones", "config": {}}, "moving_mean_initializer": {"class_name": "Zeros", "config": {}}, "moving_variance_initializer": {"class_name": "Ones", "config": {}}, "beta_regularizer": null, "gamma_regularizer": null, "beta_constraint": null, "gamma_constraint": null}, "name": "batch_normalization_213", "inbound_nodes": [[["conv1d_208", 0, 0, {}]]]}, {"class_name": "LeakyReLU", "config": {"name": "leaky_re_lu_207", "trainable": true, "dtype": "float32", "alpha": 0.30000001192092896}, "name": "leaky_re_lu_207", "inbound_nodes": [[["batch_normalization_213", 0, 0, {}]]]}, {"class_name": "Dropout", "config": {"name": "dropout_209", "trainable": true, "dtype": "float32", "rate": 0.5, "noise_shape": null, "seed": null}, "name": "dropout_209", "inbound_nodes": [[["leaky_re_lu_207", 0, 0, {}]]]}, {"class_name": "Conv1D", "config": {"name": "conv1d_209", "trainable": true, "dtype": "float32", "filters": 64, "kernel_size": [9], "strides": [1], "padding": "same", "data_format": "channels_last", "dilation_rate": [3], "groups": 1, "activation": "linear", "use_bias": true, "kernel_initializer": {"class_name": "GlorotUniform", "config": {"seed": null}}, "bias_initializer": {"class_name": "Zeros", "config": {}}, "kernel_regularizer": null, "bias_regularizer": null, "activity_regularizer": null, "kernel_constraint": null, "bias_constraint": null}, "name": "conv1d_209", "inbound_nodes": [[["dropout_209", 0, 0, {}]]]}, {"class_name": "Add", "config": {"name": "add_99", "trainable": true, "dtype": "float32"}, "name": "add_99", "inbound_nodes": [[["add_98", 0, 0, {}], ["conv1d_209", 0, 0, {}]]]}, {"class_name": "BatchNormalization", "config": {"name": "batch_normalization_214", "trainable": true, "dtype": "float32", "axis": [2], "momentum": 0.99, "epsilon": 0.001, "center": true, "scale": true, "beta_initializer": {"class_name": "Zeros", "config": {}}, "gamma_initializer": {"class_name": "Ones", "config": {}}, "moving_mean_initializer": {"class_name": "Zeros", "config": {}}, "moving_variance_initializer": {"class_name": "Ones", "config": {}}, "beta_regularizer": null, "gamma_regularizer": null, "beta_constraint": null, "gamma_constraint": null}, "name": "batch_normalization_214", "inbound_nodes": [[["add_99", 0, 0, {}]]]}, {"class_name": "LeakyReLU", "config": {"name": "leaky_re_lu_208", "trainable": true, "dtype": "float32", "alpha": 0.30000001192092896}, "name": "leaky_re_lu_208", "inbound_nodes": [[["batch_normalization_214", 0, 0, {}]]]}, {"class_name": "LeakyReLU", "config": {"name": "leaky_re_lu_209", "trainable": true, "dtype": "float32", "alpha": 0.30000001192092896}, "name": "leaky_re_lu_209", "inbound_nodes": [[["batch_normalization_214", 0, 0, {}]]]}, {"class_name": "Dense", "config": {"name": "dense_8", "trainable": true, "dtype": "float32", "units": 1, "activation": "sigmoid", "use_bias": true, "kernel_initializer": {"class_name": "GlorotUniform", "config": {"seed": null}}, "bias_initializer": {"class_name": "Zeros", "config": {}}, "kernel_regularizer": null, "bias_regularizer": null, "activity_regularizer": null, "kernel_constraint": null, "bias_constraint": null}, "name": "dense_8", "inbound_nodes": [[["leaky_re_lu_208", 0, 0, {}]]]}, {"class_name": "Dense", "config": {"name": "dense_9", "trainable": true, "dtype": "float32", "units": 3, "activation": "softmax", "use_bias": true, "kernel_initializer": {"class_name": "GlorotUniform", "config": {"seed": null}}, "bias_initializer": {"class_name": "Zeros", "config": {}}, "kernel_regularizer": null, "bias_regularizer": null, "activity_regularizer": null, "kernel_constraint": null, "bias_constraint": null}, "name": "dense_9", "inbound_nodes": [[["leaky_re_lu_209", 0, 0, {}]]]}], "input_layers": [["input_5", 0, 0]], "output_layers": [["dense_8", 0, 0], ["dense_9", 0, 0]]}, "keras_version": "2.4.0", "backend": "tensorflow"}